…
params: {'dataset_name': 'bridge2algebra2006', 'model_name': 'akt', 'emb_type': 'qid', 'save_dir': 'saved_model', 'seed': 42, 'fold': 0, 'dropout': 0.2, 'd_model': 256, 'd_ff': 512, 'num_attn_heads': 8, 'n_blocks': 4, 'learning_rate': 0.0001, 'use_wandb': 1, 'add_uuid': 0}, params_str: bridge2algebra2006_akt_qid_saved_model_42_0_0.2_256_512_8_4_0.0001_1_0
Start training model: akt, embtype: qid, save_dir: saved_model/bridge2algebra2006_akt_qid_saved_model_42_0_0.2_256_512_8_4_0.0001_1_0, dataset_name: bridge2algebra2006
model_config: {'dropout': 0.2, 'd_model': 256, 'd_ff': 512, 'num_attn_heads': 8, 'n_blocks': 4, 'learning_rate': 0.0001, 'use_wandb': 1, 'add_uuid': 0}
train_config: {'batch_size': 64, 'num_epochs': 200, 'optimizer': 'adam', 'seq_len': 200}
2025-10-18 23:08:38 - main - said: init_model
model_name:akt
model is AKT(
  (difficult_param): Embedding(129264, 1)
  (q_embed_diff): Embedding(494, 256)
  (qa_embed_diff): Embedding(987, 256)
  (q_embed): Embedding(493, 256)
  (qa_embed): Embedding(2, 256)
  (model): Architecture(
    (blocks_1): ModuleList(
      (0-3): 4 x TransformerLayer(
        (masked_attn_head): MultiHeadAttention(
          (v_linear): Linear(in_features=256, out_features=256, bias=True)
          (k_linear): Linear(in_features=256, out_features=256, bias=True)
          (dropout): Dropout(p=0.2, inplace=False)
          (out_proj): Linear(in_features=256, out_features=256, bias=True)
        )
        (layer_norm1): LayerNorm((256,), eps=1e-05, elementwise_affine=True)
        (dropout1): Dropout(p=0.2, inplace=False)
        (linear1): Linear(in_features=256, out_features=512, bias=True)
        (activation): ReLU()
        (dropout): Dropout(p=0.2, inplace=False)
        (linear2): Linear(in_features=512, out_features=256, bias=True)
        (layer_norm2): LayerNorm((256,), eps=1e-05, elementwise_affine=True)
        (dropout2): Dropout(p=0.2, inplace=False)
      )
    )
    (blocks_2): ModuleList(
      (0-7): 8 x TransformerLayer(
        (masked_attn_head): MultiHeadAttention(
          (v_linear): Linear(in_features=256, out_features=256, bias=True)
          (k_linear): Linear(in_features=256, out_features=256, bias=True)
          (dropout): Dropout(p=0.2, inplace=False)
          (out_proj): Linear(in_features=256, out_features=256, bias=True)
        )
        (layer_norm1): LayerNorm((256,), eps=1e-05, elementwise_affine=True)
        (dropout1): Dropout(p=0.2, inplace=False)
        (linear1): Linear(in_features=256, out_features=512, bias=True)
        (activation): ReLU()
        (dropout): Dropout(p=0.2, inplace=False)
        (linear2): Linear(in_features=512, out_features=256, bias=True)
        (layer_norm2): LayerNorm((256,), eps=1e-05, elementwise_affine=True)
        (dropout2): Dropout(p=0.2, inplace=False)
      )
    )
  )
  (out): Sequential(
    (0): Linear(in_features=512, out_features=512, bias=True)
    (1): ReLU()
    (2): Dropout(p=0.2, inplace=False)
    (3): Linear(in_features=512, out_features=256, bias=True)
    (4): ReLU()
    (5): Dropout(p=0.2, inplace=False)
    (6): Linear(in_features=256, out_features=1, bias=True)
  )
)
2025-10-18 23:08:38 - main - said: train model
ts.shape: (277809,), ps.shape: (277809,)
Epoch: 1, validauc: 0.7529, validacc: 0.8367, best epoch: 1, best auc: 0.7529, train loss: 0.4298827002585168, emb_type: qid, model: akt, save_dir: saved_model/bridge2algebra2006_akt_qid_saved_model_42_0_0.2_256_512_8_4_0.0001_1_0
            testauc: -1, testacc: -1, window_testauc: -1, window_testacc: -1
…
