…
params: {'dataset_name': 'bridge2algebra2006', 'model_name': 'lpkt', 'emb_type': 'qid', 'save_dir': 'saved_model', 'seed': 42, 'fold': 0, 'learning_rate': 0.003, 'dropout': 0.2, 'd_a': 50, 'd_e': 128, 'd_k': 128, 'gamma': 0.03, 'use_wandb': 1, 'add_uuid': 0}, params_str: bridge2algebra2006_lpkt_qid_saved_model_42_0_0.003_0.2_50_128_128_0.03_1_0
Start training model: lpkt, embtype: qid, save_dir: saved_model/bridge2algebra2006_lpkt_qid_saved_model_42_0_0.003_0.2_50_128_128_0.03_1_0, dataset_name: bridge2algebra2006
model_config: {'learning_rate': 0.003, 'dropout': 0.2, 'd_a': 50, 'd_e': 128, 'd_k': 128, 'gamma': 0.03, 'use_wandb': 1, 'add_uuid': 0}
train_config: {'batch_size': 64, 'num_epochs': 200, 'optimizer': 'adam', 'seq_len': 200}
2025-10-18 23:08:20 - main - said: init_model
model_name:lpkt
n_question:493
model is LPKT(
  (at_embed): Embedding(12, 128)
  (it_embed): Embedding(4371, 128)
  (e_embed): Embedding(129273, 128)
  (linear_0): Linear(in_features=178, out_features=128, bias=True)
  (linear_1): Linear(in_features=306, out_features=128, bias=True)
  (linear_2): Linear(in_features=512, out_features=128, bias=True)
  (linear_3): Linear(in_features=512, out_features=128, bias=True)
  (linear_4): Linear(in_features=384, out_features=128, bias=True)
  (linear_5): Linear(in_features=256, out_features=128, bias=True)
  (linear_6): Linear(in_features=384, out_features=128, bias=True)
  (linear_7): Linear(in_features=384, out_features=128, bias=True)
  (linear_8): Linear(in_features=256, out_features=128, bias=True)
  (tanh): Tanh()
  (sig): Sigmoid()
  (dropout): Dropout(p=0.2, inplace=False)
)
2025-10-18 23:08:25 - main - said: train model
ts.shape: (276791,), ps.shape: (276791,)
Epoch: 1, validauc: 0.7886, validacc: 0.8439, best epoch: 1, best auc: 0.7886, train loss: 5083.7265625, emb_type: qid, model: lpkt, save_dir: saved_model/bridge2algebra2006_lpkt_qid_saved_model_42_0_0.003_0.2_50_128_128_0.03_1_0
…
